student_submissions/s2313013_2313178_2310110_2313522/model.pth (torch, 391348 bytes, 6 tensors)

network.0.weight f4 [256, 200]
-0.04739714 -0.04874116 -0.0030902626 0.013626306 -0.048988007 -0.017259732 -0.073447675 0.0869567
0.062022537 0.072047524 -0.01270572 -0.021343095 0.046808366 0.113841705 -0.03560434 -0.1013153
0.007765862 -0.011846427 -0.005493387 -0.032100074 0.006737736 -0.111289166 0.06525786 -0.018853623
-0.0080349315 -0.043487765 -0.058975156 0.016931616 -0.03471265 0.048723847 0.018060409 -0.054599427
0.08719848 -0.09471768 0.011671957 -0.058623906 0.048030365 0.07876458 0.068258375 0.039011918
-0.08610926 -0.09040569 0.025830766 0.008312553 -0.035135023 -0.079522386 -0.0043009166 0.024945136
0.038072027 0.012575153 0.036925606 0.0033782835 -0.05698124 -0.010501681 -0.046522163 0.018706346
0.0050555817 -0.024567604 0.0663997 0.015659673 -0.04866967 -0.023122199 -0.016795887 0.06837775
-0.009093966 0.025024874 -0.013111886 -0.061932657 -0.027022678 -0.06263753 0.0030097205 -0.04734982
-0.05660324 0.054198567 -0.054239064 0.0006984749 -0.024936784 0.040132 0.09438653 -0.017596494
0.050649393 0.0032247498 -0.009682868 -0.043829814 0.07582603 0.033063214 -0.06217645 0.034514647
0.037071116 -0.062444124 -0.05209691 -0.037402816 -0.016150406 0.0662397 -0.054901354 0.02223584
-0.02769586 -0.110926576 -0.021237453 0.03844218 -0.045749567 -0.06430733 0.07193783 -0.08515237
-0.013811677 -0.019321118 0.018883409 -0.0026843585 -0.09544936 0.01836751 -0.03222399 0.05254135
0.08422264 0.011033434 0.030859627 0.03439772 0.07136495 -0.046948645 -0.010342279 0.06151329
0.095041886 -0.015431442 0.06271767 -0.04885683 0.03270662 -0.059587006 0.021646276 0.0070562065
-0.016334899 -0.055707354 -0.011615418 -0.037371147 -0.022288546 -0.013047062 -0.07063368 -0.03613596
0.013297714 0.05110053 0.024300806 -0.03784176 -0.0029113293 0.024146527 0.03254102 -0.069343746
0.046037287 -0.067079104 -0.015969045 0.052807823 -0.070357986 -0.053533193 0.028119564 0.064390115
0.051835418 -0.0012270436 0.031239986 0.02101262 0.028389245 0.026904367 -0.008799918 -0.016096592
-0.050368316 -0.03660656 -0.011763111 -0.023569565 0.04127174 0.06322976 -0.013911899 0.051863335
-0.042806163 -0.04656164 -0.0422204 -0.026052933 -0.070699826 -0.011191431 -0.014372792 0.06334921
-0.033559844 0.038778007 -0.049483143 0.043240063 0.03478948 -0.022502337 0.014703423 -0.021944381
-0.040076025 0.060011886 -0.028002527 -0.024497233 -0.056120016 0.043836378 -0.007011786 -0.0015147626
0.028891295 -0.031905055 -0.061112925 0.064505436 -0.013080772 0.049110197 -0.054260977 0.02804368
0.029515618 0.068059035 0.022450805 0.0073189917 -0.043878775 -0.07621008 0.0033015355 -0.08152569
0.028514646 -0.025827087 -0.037146337 -0.05870338 -0.07411641 -0.001076787 0.036824223 0.014280613
0.02277154 -0.052155815 -0.017126711 0.059217233 -0.04539005 0.03178161 0.013007729 0.05971231
0.10611215 0.016512245 -0.03703274 0.019151442 -0.07811741 -0.07130844 0.044315223 0.023385657
0.029931229 -0.04888231 0.04424868 0.0023451908 -0.10446855 0.0033182548 -0.011950983 0.030492913
-0.033285577 -0.007384189 0.018729987 -0.03364044 -0.02453482 0.030860307 -0.006857099 -0.028868577
0.0012584092 0.062227204 0.04911586 -0.06339994 -0.01859605 0.07430631 -0.029565131 -0.05066881
00000000: 8123 42bd d0a4 47bd 0186 4abb df40 5f3c
00000010: a6a7 48bd 4864 8dbc bc6b 96bd 5b16 b23d
00000020: 580b 7e3d a78d 933d a72b 50bc b7d7 aebc
00000030: 21ba 3f3d d725 e93d dbd5 11bd 657e cfbd
00000040: c678 fe3b 8417 42bc df01 b4bb 5e7b 03bd
00000050: 3ac8 dc3b 93eb e3bd eaa5 853d ea72 9abc
00000060: f2a4 03bc 3a20 32bd ef8f 71bd 2cb4 8a3c
00000070: da2e 0ebd a892 473d 6cf3 933c a6a3 5fbd
00000080: 1e95 b23d 58fb c1bd bc3b 3f3c 9f1f 70bd
00000090: 7dbb 443d 534f a13d 0ccb 8b3d f6ca 1f3d
000000a0: 0d5a b0bd 9e26 b9bd 0b9b d33c 6031 083c
000000b0: bee9 0fbd a2dc a2bd b4ee 8cbb be59 cc3c
000000c0: 6af1 1b3d 0408 4e3c 4e3f 173d 3166 5d3b
000000d0: 2965 69bd 3e0f 2cbc 068e 3ebd 0d3e 993c
000000e0: 4ba9 a53b 0042 c9bc 91fc 873d b748 803c
000000f0: d959 47bd c46a bdbc 8797 89bc a209 8c3d
00000100: dcfe 14bc f700 cd3c 3cd3 56bc 19ad 7dbd
00000110: aa5e ddbc 1b48 80bd bb3e 453b e3f1 41bd
00000120: cdd8 67bd 51ff 5d3d c829 5ebd db19 373a
00000130: 3a48 ccbc 7461 243d ba4d c13d 8626 90bc
00000140: bd75 4f3d 5356 533b e4a4 1ebc e486 33bd
00000150: ad4a 9b3d 4b6d 073d bcac 7ebd 3b5f 0d3d
00000160: e2d7 173d 69c5 7fbd 9263 55bd b233 19bd
00000170: db4d 84bc aea8 873d 3ee0 60bd f027 b63c
00000180: 6ee2 e2bc 792d e3bd 2bfa adbc 8c75 1d3d
00000190: e663 3bbd 90b3 83bd 2454 933d 5e64 aebd
000001a0: 5f4a 62bc 5247 9ebc 61b1 9a3c 10ec 2fbb
000001b0: f47a c3bd 7677 963c 4dfd 03bd 9935 573d
000001c0: eb7c ac3d 94c5 343c 54cd fc3c a0e4 0c3d
000001d0: c927 923d 394d 40bd aa72 29bc 5cf5 7b3d
000001e0: 52a5 c23d 29d4 7cbc 1f72 803d 191e 48bd
000001f0: 60f7 053d 8111 74bd 8853 b13c c037 e73b
00000200: c4d0 85bc 652d 64bd 984e 3ebc 7d12 19bd
00000210: 7896 b6bc 58c3 55bc 64a8 90bd 4d03 14bd
00000220: a8de 593c ca4e 513d 7c12 c73c f6ff 1abd
00000230: 00cc 3ebb f0ce c53c bc49 053d 1804 8ebd
00000240: 9891 3c3d c560 89bd 84d1 82bc 044d 583d
00000250: d917 90bd 9f45 5bbd 005b e63c f7de 833d
00000260: 6051 543d c0d4 a0ba 00eb ff3c a822 ac3c
00000270: 9090 e83c 8c66 dc3c 882d 10bc 00dd 83bc
00000280: 024f 4ebd c3f0 15bd 10ba 40bc f614 c1bc
00000290: 8e0c 293d 9b7e 813d bcee 63bc a66e 543d
000002a0: 8455 2fbd 6bb7 3ebd 4cef 2cbd f66c d5bc
000002b0: 12cb 90bd 445c 37bc dc7b 6bbc 3bbd 813d
000002c0: 0c76 09bd b0d5 1e3d d6ae 4abd 7e1c 313d
000002d0: 6a7f 0e3d d256 b8bc a0e6 703c b4c4 b3bc
000002e0: c226 24bd 06cf 753d 8e65 e5bc 6cae c8bc
000002f0: 1ade 65bd c68d 333d 20c3 e5bb 008b c6ba
00000300: 70ad ec3c e0ae 02bd 8c51 7abd 6d1b 843d
00000310: bc50 56bc c627 493d c240 5ebd dcbb e53c
00000320: bdca f13c 8962 8b3d c0ea b73c 27d4 ef3b
00000330: 3bba 33bd 0814 9cbd 935e 583b f1f6 a6bd
00000340: 8c97 e93c 5493 d3bc c226 18bd f572 70bd
00000350: 58ca 97bd fa22 8dba ffd4 163d 3bf9 693c
00000360: 618b ba3c 56a1 55bd 514d 8cbc c58d 723d
00000370: ebea 39bd 6f2d 023d 5f1e 553c e594 743d
00000380: 5451 d93d b044 873c a4af 17bd 7ce3 9c3c
00000390: 05fc 9fbd 290a 92bd e183 353d 4793 bf3c
000003a0: 5632 f53c d138 48bd 1b3e 353d c6b1 193b
000003b0: 9bf3 d5bd 1477 593b 0ece 43bc 46cc f93c
000003c0: 7556 08bd 11f7 f1bb a16f 993c 8fca 09bd
000003d0: 3ffd c8bc c1ce fc3c 84b1 e0bb cb7d ecbc
000003e0: 35f1 a43a f4e1 7e3d b62d 493d d4d7 81bd
000003f0: be56 98bc e82d 983d 9332 f2bc 198a 4fbd

network.0.bias f4 [256]
-0.01699237 -0.005308242 -0.048232514 -0.06469276 -0.073407575 -0.099855535 0.001803853 0.0047187717
0.050295465 0.067656405 -0.073017456 0.04555936 -0.004372429 0.045800865 0.042396624 -0.011179625
-0.06291761 -0.023243478 -0.025993504 -0.10812006 -0.052136797 -0.016327389 0.07488953 -0.0064057624
0.032013632 -0.045092788 0.026128834 -0.02437659 -0.056480512 -0.06373508 -0.035400443 0.00152847
-0.019998156 0.010877376 -0.0038820377 -0.008673534 0.03475296 -0.025106065 -0.0039389855 -0.015960572
-0.0059801773 0.015723763 -0.009361926 -0.0063350825 -0.02239127 -0.06785182 0.027837772 0.05500061
-0.017636167 -0.031429373 0.08498748 0.046459377 -0.08482896 0.029433757 0.006589035 -0.067446016
0.018356288 -0.058532115 -0.04987972 0.021653943 0.050507464 -0.055999614 0.02651623 0.01933417
0.031968106 0.0034128875 -0.02001826 0.030050647 -0.06719459 -0.023575207 -0.04541 0.07703182
0.00075481157 -0.015068343 0.038623016 -0.0043797106 0.05142713 -0.05021321 -0.06653457 -0.07877603
0.017019425 0.028278548 -0.0070155323 0.035670515 -0.13462871 -0.040820397 0.041855033 -0.08834155
0.04807302 0.014850103 0.012141222 -0.055800866 -0.05680791 -0.0014374125 0.08562189 -0.07918333
0.02867913 -0.03369836 -0.061176572 -0.0440628 -0.1282789 -0.04780602 -0.029503278 0.08178184
0.012248859 0.0075181983 0.0277816 0.05350498 -0.0925393 -0.08323945 0.015194294 -0.023592642
-0.0061082663 -0.048728038 0.03274067 0.012120632 -0.03270282 0.04170817 -0.013113202 0.0110162925
0.054342628 -0.047630273 -0.022492517 -0.06615153 -0.018999644 0.019731365 0.007552771 -0.05107621
0.017541211 -0.091431625 -0.022008788 0.019448854 -0.09248713 -0.027558133 0.035008274 0.030658519
-0.027520962 -0.08327314 -0.09385693 0.0050728414 -0.04465191 -0.095117934 -0.04844363 0.072729036
0.05651354 0.058600705 0.06496937 0.075967535 -0.053814825 -0.028988494 -0.04900145 -0.018690957
-0.016601166 -0.082899146 0.02506391 0.0060088737 0.012277538 -0.054696787 0.036142565 -0.09748439
-0.08887284 -0.009464022 0.031016683 0.036931437 0.015810017 -0.051939383 -0.06854724 -0.07194593
0.07576084 -0.039417885 0.05085467 0.047086746 0.06680089 0.011222482 -0.015122314 0.0014138339
0.0051642163 -0.046016213 -0.066403486 0.04329949 -0.012611069 -0.04478337 -0.065089524 -0.105144985
-0.06145265 -0.03034736 -0.049454335 -0.007868824 -0.024856472 -0.06437193 0.022320915 0.04477677
-0.008409046 -0.050500073 0.007006077 -0.04732109 0.005696933 -0.07444538 -0.042407423 -0.022053558
0.015017931 -0.025130777 -0.044369787 0.002990343 0.0009284771 0.033611365 -0.074542195 -0.04084406
-0.09676772 0.059859622 0.029132979 -0.03351464 0.039286144 -0.058198135 0.022577355 0.010965397
-0.02773072 -0.013640337 -0.016182937 -0.0069001094 -0.01182982 0.061141066 0.0067545027 0.057941504
-0.05086281 0.044032797 0.050557755 0.018715959 -0.05968027 0.051100638 -0.037939426 -0.097721405
-0.044093084 -0.030784335 0.020957349 0.021803595 -0.026586633 -0.005518895 0.03064283 0.033358578
0.012381705 -0.007558071 -0.037507497 0.022222059 -0.09159013 0.021225011 -0.034749165 -0.07533202
-0.044633836 -0.052723933 -0.07243289 0.018790511 0.0098365275 -0.065816335 -0.074500605 -0.01495378
00000000: 9533 8bbc c3f0 adbb 758f 45bd a37d 84bd
00000010: b656 96bd 0f81 ccbd 436f ec3a ed9f 9a3b
00000020: 9e02 4e3d 718f 8a3d 2d8a 95bd 749c 3a3d
00000030: 9846 8fbb b099 3b3d 15a8 2d3d bf2a 37bc
00000040: f3da 80bd 1b69 bebc 54f0 d4bc 0d6e ddbd
00000050: 658d 55bd 04c1 85bc af5f 993d 6ee7 d1bb
00000060: ba20 033d 37b3 38bd 230c d63c 6ab1 c7bc
00000070: 1c58 67bd 8a87 82bd 0e00 11bd f156 c83a
00000080: 2cd3 a3bc 0637 323c c969 7ebb 701b 0ebc
00000090: 1f59 0e3d 3cab cdbc 9b12 81bb bfbf 82bc
000000a0: 5df5 c3bb 1fcf 803c c362 19bc 8696 cfbb
000000b0: e66d b7bc e5f5 8abd 0a0c e43c 5248 613d
000000c0: b979 90bc 16bc 00bd ea0d ae3d 304c 3e3d
000000d0: ceba adbd 101f f13c d5e8 d73b 2321 8abd
000000e0: ed5f 963c 5fbf 6fbd ad4e 4cbd 9c63 b13c
000000f0: eae0 4e3d da5f 65bd 9138 d93c b162 9e3c
00000100: fdf0 023d c0aa 5f3b 56fd a3bc c62c f63c
00000110: 519d 89bd cb20 c1bc d6ff 39bd dcc2 9d3d
00000120: 8cde 453a 36e1 76bc 2b33 1e3d ad83 8fbb
00000130: 41a5 523d 5eac 4dbd 4743 88bd 5455 a1bd
00000140: 526c 8b3c 6aa8 e73c 8de2 e5bb 3f1b 123d
00000150: 1cdc 09be 4a33 27bd 2f70 2b3d 6aec b4bd
00000160: 37e8 443d d94d 733c faeb 463c 738f 64bd
00000170: 69af 68bd 8f67 bcba 885a af3d df2a a2bd
00000180: 7ff0 ea3c 4b07 0abd 4994 7abd 327b 34bd
00000190: 8b5b 03be 3fd0 43bd dcb0 f1bc 3d7d a73d
000001a0: 70af 483c 385b f63b 3d96 e33c 0a28 5b3d
000001b0: 3f85 bdbd 7279 aabd 7df1 783c 5b45 c1bc
000001c0: da27 c8bb 0d97 47bd 151b 063d 9e95 463c
000001d0: 64f3 05bd 30d6 2a3d c1d8 56bc ae7d 343c
000001e0: 6096 5e3d f617 43bd 3a42 b8bc 747a 87bd
000001f0: 24a5 9bbc aca3 a13c 3c7d f73b 4a35 51bd
00000200: 96b2 8f3c 8140 bbbd c64b b4bc 3453 9f3c
00000210: e469 bdbd 98c1 e1bc d664 0f3d 9327 fb3c
00000220: a473 e1bc 1c8b aabd 1038 c0bd 143a a63b
00000230: ece4 36bd 31cd c2bd d46c 46bd f6f2 943d
00000240: be7a 673d 4b07 703d a90e 853d de94 9b3d
00000250: ef6c 5cbd 4779 edbc bfb5 48bd c71d 99bc
00000260: 2bff 87bc 07c7 a9bd d452 cd3c 16e6 c43b
00000270: ba27 493c bd09 60bd 3a0a 143d e5a5 c7bd
00000280: f702 b6bd fc0e 1bbc b316 fe3c 6b45 173d
00000290: 0284 813c 64be 54bd 7f62 8cbd 6358 93bd
000002a0: 8028 9b3d a674 21bd fd4c 503d 08de 403d
000002b0: e8ce 883d 80de 373c 95c3 77bc 6550 b93a
000002c0: 9638 a93b 7f7b 3cbd 8dfe 87bd ce5a 313d
000002d0: a89e 4ebc c46e 37bd a84d 85bd 4156 d7bd
000002e0: c6b5 7bbd 079b f8bc a190 4abd 3dec 00bc
000002f0: cd9f cbbc 6ed5 83bd 5ada b63c d967 373d
00000300: 18c6 09bc 2ad9 4ebd 3c93 e53b c2d3 41bd
00000310: 56ad ba3b d276 98bd 68b3 2dbd aaa9 b4bc
00000320: c50d 763c 0fdf cdbc 18bd 35bd a1f9 433b
00000330: 0b65 733a 12ac 093d 94a9 98bd 1a4c 27bd
00000340: 282e c6bd 5d2f 753d 49a8 ee3c a646 09bd
00000350: 82ea 203d 2b61 6ebd 25f4 b83c 35a8 333c
00000360: 892b e3bc b87b 5fbc 1492 84bc 501a e2bb
00000370: ddd1 41bc 0e6f 7a3d e054 dd3b 1254 6d3d
00000380: 8655 50bd bc5b 343d a615 4f3d 3652 993c
00000390: 4c73 74bd e74e 513d 5f66 1bbd 2922 c8bd
000003a0: f39a 34bd 6e2f fcbc bfae ab3c 749d b23c
000003b0: 36cc d9bc d9d7 b4bb ac06 fb3c 01a3 083d
000003c0: a3dc 4a3c b2a9 f7bb 76a1 19bd 090b b63c
000003d0: 9b93 bbbd 13e0 ad3c 2455 0ebd ad47 9abd
000003e0: f8d1 36bd 0df5 57bd b257 94bd 8fee 993c
000003f0: 6329 213c b7ca 86bd c693 98bd b300 75bc

network.2.weight f4 [128, 256]
0.0418127 -0.051744226 -0.049912278 0.02116191 0.010725822 -0.01925417 0.0042484575 0.014149233
-0.06669488 -0.019233042 0.03543962 0.044991218 0.0020287603 0.043046027 0.029710595 -0.011161949
0.018927071 0.023256866 -0.03567031 -0.008420095 0.036836687 -0.07257404 -0.058404885 0.019917596
-0.018425306 -0.0016676973 -0.027323421 -0.07403795 -0.053486906 -0.0093672 -0.05156677 -0.04684969
0.004135604 -0.06486509 -0.055773675 -0.019259261 0.035983298 0.017751312 -0.018239414 -0.029120477
-0.047039453 -0.045386676 0.0034957733 -0.00074726506 -0.053890698 -0.008311053 0.024692181 0.040801756
-0.018036142 -0.050387714 -0.083249584 -0.08064432 0.008797624 -0.0056979894 0.01223438 0.044070486
-0.019501563 0.03538418 -0.016003013 -0.029965233 -0.02476662 -0.04731149 -0.015313341 0.008849249
0.0037256686 -0.006443766 0.021789582 -0.046108432 -0.0016532006 -0.012791966 -0.044828046 0.05428404
-0.052734878 -0.039271716 0.016545862 0.04726338 -0.078918144 -0.007324224 0.04365724 0.050124813
0.0076788105 -0.024755515 -0.073898375 -0.01130054 -0.00165249 0.008130789 -0.005151359 -0.0103188455
0.0056730337 -0.013130308 -0.050504364 0.026318774 -0.042510357 -0.03949797 -0.024865327 -0.05690995
0.010044949 -0.030871172 -0.0367894 -0.010346812 0.033946134 -0.041583847 -0.008873935 0.029710408
0.05298105 0.010480172 -0.07527552 0.046034567 0.05329926 -0.04317915 -0.024609203 0.056075905
0.028300012 0.045849025 -0.0315676 0.02272077 0.016317643 -0.06934095 0.029583827 -0.0012057967
0.03558918 -0.014585478 -0.02118304 -0.06336607 0.027491907 0.0055558365 -0.06401158 -0.06763618
0.0017416138 -0.028902518 -0.014127866 -0.025566561 -0.04092071 -0.05621405 -0.008321014 -0.03949343
-0.043504737 -0.0015625639 0.04601133 -0.021618966 -0.049782835 -0.025717067 -0.059523843 -0.059525955
0.024664704 0.0106086135 -0.023686493 -0.04802515 -0.054284558 -0.02007513 -0.0050908565 0.030558795
0.049098812 0.010527139 0.006507653 0.0019154509 -0.046990413 0.001169273 -0.035933584 -0.06332461
0.042127777 -0.06585814 -0.047854546 -0.009572283 0.053969227 0.021435382 -0.06492268 -0.07310155
-0.03860643 0.027756196 0.018955728 -0.042948868 -0.060180422 0.05048338 -0.030918734 0.030983072
0.020442378 0.08232399 -0.014363209 -0.050092164 -0.066538185 -0.047154404 0.02258068 -0.058233414
-0.056729086 -0.025925377 0.01187671 -0.051076394 -0.03998488 -0.0805314 -0.010792286 -0.0128731895
-0.024521718 -0.01289863 -0.0027856913 -0.0009920831 -0.023555694 0.0021067818 0.061727017 -0.02818821
0.0012225548 0.022054879 -0.070112534 -0.01838553 -0.034508612 0.018346542 -0.014013889 -0.016953686
-0.006720782 0.031661954 -0.072765656 0.05726813 -0.049298715 -0.033929158 0.024524603 -0.010335973
-0.006594739 0.04627843 0.021864481 -0.03402057 -0.072593585 0.04649803 -0.035331953 -0.031674854
-0.05016328 0.022320108 0.011755135 0.007010947 -0.016924335 -0.013042911 0.037202105 -0.052795354
0.009999305 -0.05016282 0.029941194 -0.017156318 -0.0018277316 0.039561417 0.038907167 0.054022506
-0.053470347 -0.033984628 0.03843509 -0.046682388 0.039237477 0.011553779 -0.019304726 -0.049008943
0.015508989 0.017074408 -0.0075029028 -0.048591655 0.019268697 0.029711211 0.04267302 0.026672455
00000000: cb43 2b3d c1f1 53bd d170 4cbd be5b ad3c
00000010: 5cbb 2f3c ecba 9dbc a536 8b3b 2fd2 673c
00000020: 5397 88bd 9d8e 9dbc 2329 113d b648 383d
00000030: f3f4 043b 0851 303d a263 f33c 9be0 36bc
00000040: f20c 9b3c 2f85 be3c 081b 12bd 70f4 09bc
00000050: 11e2 163d b3a1 94bd f639 6fbd 3a2a a33c
00000060: abf0 96bc a396 daba 5ed5 dfbc 35a1 97bd
00000070: 1615 5bbd e278 19bc ad37 53bd 76e5 3fbd
00000080: f683 873b fdd7 84bd f072 64bd 99c5 9dbc
00000090: 3963 133d 336b 913c d36a 95bc 118e eebc
000000a0: 71ac 40bd 61e7 39bd 5819 653b 1ce4 43ba
000000b0: 7ebc 5cbd 152b 08bc 4247 ca3c be1f 273d
000000c0: 88c0 93bc 5963 4ebd c27e aabd d928 a5bd
000000d0: e923 103c 33b6 babb b572 483c 4183 343d
000000e0: bec1 9fbc 00ef 103d c018 83bc a679 f5bc
000000f0: 5ee3 cabc b1c9 41bd cfe4 7abc 71fc 103c
00000100: 592a 743b 3a26 d3bb 1180 b23c 32dc 3cbd
00000110: 35b0 d8ba 6595 51bc 9d9d 37bd f158 5e3d
00000120: 8700 58bd 61db 20bd 308b 873c 3f97 413d
00000130: d69f a1bd 0b00 f0bb efd1 323d ad4f 4d3d
00000140: 889e fb3b 14cc cabc 0858 97bd e625 39bc
00000150: 5d98 d8ba 0037 053c bbcc a8bb 6010 29bc
00000160: dbe4 b93b 8120 57bc aadd 4ebd 789a d73c
00000170: 571f 2ebd a0c8 21bd 5fb2 cbbc 681a 69bd
00000180: 9293 243c 8ae5 fcbc 7bb0 16bd ad85 29bc
00000190: 1a0b 0b3d d353 2abd fb63 11bc 3e63 f33c
000001a0: a802 593d 07b5 2b3c 0d2a 9abd be8e 3c3d
000001b0: 5350 5a3d 9fdc 30bd 3d99 c9bc d9af 653d
000001c0: 6dd5 e73c 30cc 3b3d 074d 01bd e920 ba3c
000001d0: 94ac 853c a102 8ebd c859 f23c d30b 9eba
000001e0: f6c5 113d eef7 6ebc 0e88 adbc 12c6 81bd
000001f0: b536 e13c bc0d b63b 8118 83bd d684 8abd
00000200: dd46 e43a f9c4 ecbc 9178 67bc f770 d1bc
00000210: 799c 27bd b440 66bd dd54 08bc ddc3 21bd
00000220: 0632 32bd f2ce ccba 6076 3c3d 421a b1bc
00000230: 16e9 4bbd 99ac d2bc 46cf 73bd 7dd1 73bd
00000240: a20d ca3c c0cf 2d3c 2d0a c2bc 05b6 44bd
00000250: 7c59 5ebd 9974 a4bc 33d1 a6bb 7056 fa3c
00000260: d61b 493d 057a 2c3c 263e d53b de0f fb3a
00000270: 0579 40bd 4b42 993a 182f 13bd 55b0 81bd
00000280: 2d8e 2c3d a2e0 86bd 2103 44bd 11d5 1cbc
00000290: d60e 5d3d 4199 af3c 2ff6 84bd 44b6 95bd
000002a0: c721 1ebd f660 e33c 0b49 9b3c 27eb 2fbd
000002b0: bf7f 76bd a9c7 4e3d 4949 fdbc 36d0 fd3c
000002c0: c676 a73c 7b99 a83d aa53 6bbc 712d 4dbd
000002d0: 2c45 88bd fa24 41bd 1efb b83c 2986 6ebd
000002e0: c25c 68bd 7561 d4bc 8896 423c 7b35 51bd
000002f0: 2fc7 23bd a6ed a4bd 21d2 30bc 12ea 52bc
00000300: c5e1 c8bc c754 53bc 2590 36bb c908 82ba
00000310: dff7 c0bc ef11 0a3b 78d5 7c3d f6ea e6bc
00000320: 223e a03a 6fac b43c 2997 8fbd 409d 96bc
00000330: e758 0dbd 7d4b 963c 839a 65bc 75e2 8abc
00000340: 013a dcbb f7af 013d 2906 95bd fd91 6a3d
00000350: 73ed 49bd 4df9 0abd d2e7 c83c 3758 29bc
00000360: ae18 d8bb 738e 3d3d 241d b33c 2759 0bbd
00000370: f2ab 94bd b874 3e3d 3db8 10bd 7ebd 01bd
00000380: 0378 4dbd a9d8 b63c 9c98 403c 16bc e53b
00000390: e7a4 8abc efb1 55bc 3c61 183d f13f 58bd
000003a0: 20d4 233c 8777 4dbd 3c47 f53c 688b 8cbc
000003b0: 7f90 efba 270b 223d 1f5d 1f3d b446 5d3d
000003c0: b903 5bbd 7733 0bbd 1d6e 1d3d 0836 3fbd
000003d0: 7ab7 203d 104c 3d3c f224 9ebc 9abd 48bd
000003e0: 6a19 7e3c a1df 8b3c e9da f5bb 0b08 47bd
000003f0: 63d9 9d3c ed64 f33c e8c9 2e3d 3180 da3c

network.2.bias f4 [128]
-0.059573043 0.00013241623 -0.05757523 -0.0073479223 -0.0677383 0.03741676 -0.008489518 0.029347703
0.007019699 -0.041316368 -0.04488989 0.040764168 0.034743704 -0.027957302 -0.008024538 -0.07571979
-0.057534277 0.0007327697 0.026496517 -0.009035352 0.041556176 -0.061461154 -0.0022338764 -0.07568155
0.036392473 -0.049957067 0.0108579 0.0081435125 0.07893239 -0.06180004 -0.052253675 0.018284429
-0.018492505 0.029187497 0.024365908 0.057318587 0.010225486 0.015796734 -0.03552128 -0.0018067028
-0.015886307 0.013776396 -0.03161086 -0.0075375778 0.026375925 0.07355863 0.013465817 -0.06290386
0.01189281 0.009952904 -0.055489562 0.009395933 -0.012012234 0.034124464 -0.060417965 2.6512593e-05
0.0020952222 -0.018240172 0.029302083 -0.03166936 -0.055203333 0.0065100673 0.0033657313 -0.036164396
-0.040759947 0.054742903 0.053917978 0.030101294 -0.06684283 -0.037949685 0.029940296 -0.07700237
-0.0448611 -0.011569349 -0.010211529 0.02049407 0.05000153 -0.07568119 -0.06152854 0.019894488
0.03276817 0.0028057653 -0.040433045 0.017750805 0.012467191 -0.051207285 0.0013739087 -0.019127306
-0.055563353 -0.043486353 0.067785986 -0.0028449858 -0.026865937 -0.058660276 0.008276651 -0.05258805
-0.054198224 0.010391144 -0.0027822817 -0.054911193 -0.050331566 0.086762875 -0.027930556 -0.050928604
-0.026261011 0.021889487 0.02980322 -0.06579913 0.02913268 -0.08578017 -0.03253819 0.07055669
-0.07185366 0.02315497 -0.06660664 0.0062657576 -0.029458918 -0.033457283 0.05633348 0.06681297
0.0008545459 0.011560346 0.021332638 -0.03648025 0.025617257 0.054026075 -0.07161085 0.011187597
00000000: dd02 74bd 36d9 0a39 01d4 6bbd d7c6 f0bb
00000010: 61ba 8abd 5142 193d 9f17 0bbc 986a f03c
00000020: 8105 e63b 5a3b 29bd 76de 37bd 54f8 263d
00000030: 6a4f 0e3d b606 e5bc 5a79 03bc fa12 9bbd
00000040: 10a9 6bbd 5817 403a 390f d93c 0309 14bc
00000050: cf36 2a3d b1be 7bbd 3a66 12bb eefe 9abd
00000060: 4610 153d c89f 4cbd 55e5 313c 5e6c 053c
00000070: 4ea7 a13d 0a22 7dbd f307 56bd 3ac9 953c
00000080: 987d 97bc 9e1a ef3c 039b c73c e5c6 6a3d
00000090: cc88 273c 2768 813c c37e 11bd e3ce ecba
000000a0: 0024 82bc 65b6 613c 647a 01bd c9fd f6bb
000000b0: 5312 d83c e8a5 963d bb9f 5c3c bdd3 80bd
000000c0: 10da 423c 8111 233c 0649 63bd 66f1 193c
000000d0: f6ce 44bc 18c6 0b3d d478 77bd 5c67 de37
000000e0: ff4f 093b 6a6c 95bc ec0a f03c bbb7 01bd
000000f0: e41c 62bd 6752 d53b 9a93 5c3b 1e21 14bd
00000100: e7f3 26bd 183a 603d 19d9 5c3d fd96 f63c
00000110: e5e4 88bd 2171 1bbd 5a45 f53c 6bb3 9dbd
00000120: 46c0 37bd 5e8d 3dbc 424e 27bc 2ee3 a73c
00000130: 68ce 4c3d bdfe 9abd 5a05 7cbd c4f9 a23c
00000140: eb37 063d eee0 373b 1f9d 25bd 236a 913c
00000150: 3043 4c3c bbbe 51bd ba14 b43a deb0 9cbc
00000160: 6696 63bd bf1e 32bd 61d3 8a3d f172 3abb
00000170: f415 dcbc c245 70bd ca9a 073c 9166 57bd
00000180: f5fe 5dbd 9e3f 2a3c f156 36bb 8fea 60bd
00000190: 7928 4ebd bcb0 b13d 9fce e4bc 839a 50bd
000001a0: 5521 d7bc 9551 b33c e225 f43c b2c1 86bd
000001b0: a8a7 ee3c 84ad afbd c446 05bd 0780 903d
000001c0: 0328 93bd 7eaf bd3c 1069 88bd fc50 cd3b
000001d0: d453 f1bc 810a 09bd efbd 663d 3dd5 883d
000001e0: 9b03 603a 9b67 3d3c c9c1 ae3c 516c 15bd
000001f0: 48db d13c 724a 5d3d b6a8 92bd 2f4c 373c

network.4.weight f4 [100, 128]
-0.056555465 -0.018115778 0.023421591 0.07583911 -0.06491487 0.049406532 0.05920725 0.042352486
0.084971875 0.05310522 0.004438638 0.06610917 0.05539927 0.046798617 -0.056201193 -0.07808806
-0.029833997 -0.030659294 0.026552498 0.04174717 0.0334364 0.016583314 0.046735365 -0.013873525
0.088452384 -0.049256813 0.05701718 -0.032505423 -0.062185466 -0.016989868 0.021247683 0.006479084
0.060536854 -0.056989443 0.09743958 0.03120718 -0.06989538 0.1276647 0.056520563 -0.056201153
0.04687657 -0.11529276 0.10148126 0.031820312 0.09586837 0.06181554 0.050494753 -0.020304775
0.06732381 0.07527454 -0.03249603 -0.114405245 -0.089156576 -0.017589414 -0.062313776 0.08173935
0.08867695 0.012409505 0.0012355593 0.05764931 0.0011843909 -0.067572966 -0.0071775336 0.024330877
0.058093417 0.046761215 0.005645293 -0.063166805 0.050566107 -0.018962543 0.0050252313 0.049482558
0.00056493614 0.08812324 0.03584745 0.014562711 -0.036786616 0.008141089 -0.038312223 0.09131331
0.025366561 0.06615877 -0.0066542057 -0.08385321 -0.055648334 0.060357127 0.027651388 0.08350183
0.08979153 -0.049873434 0.117086746 -0.03312041 -0.039860666 -0.06438588 0.024118029 0.025575228
0.037073735 -0.044562537 0.0101155555 -0.03698978 0.045221206 -0.01355 0.021157295 -0.06850715
-0.055497706 0.08007406 0.00643912 0.03077089 -0.008914509 0.0043907827 -0.06267048 -0.079681344
-0.0050556906 0.1081901 -0.018834207 0.09351628 0.043117937 0.042766303 0.06282785 0.04564775
0.030588876 0.04747724 -0.06084298 -0.016134327 -0.020802485 0.087321475 0.053743895 0.009936021
0.020454308 0.047760792 -0.029441006 -0.009322804 -0.012812831 -0.011921908 -0.014084819 -0.040808056
0.03495705 0.01783168 0.010570468 0.018137613 -0.0046550515 -0.08319218 -0.054455433 0.031206794
-0.081686154 -0.06305468 0.010614995 -0.028641354 -0.09577623 -0.07387508 -0.07989466 -0.0053024204
-0.0075537562 -0.021633193 0.055190723 -0.003282842 -0.030423973 0.010657501 0.07053268 -0.048308447
0.007657352 0.009902005 0.040415164 -0.03628539 0.041577253 0.09980635 0.06352417 -0.03454956
0.012827278 -0.047491875 0.048025753 -0.042692028 0.023361893 -0.025500787 0.030246494 0.0070301024
0.05312037 -0.08082642 -0.06332146 -0.03716151 -0.0031393531 -0.11850413 0.072632745 0.021170147
-0.07473608 -0.07327439 -0.03011186 -0.02289108 0.0033843387 0.050284956 -0.16466586 -0.09456018
0.032295827 -0.04782444 -0.11204724 -0.06504444 0.025748517 0.03582578 -0.034395725 0.059591766
-0.069771886 -0.018434515 -0.023795106 0.050447956 -0.0153323375 0.08095633 0.029553903 -0.021233354
0.05004488 0.037536953 0.050477024 -0.059257615 -0.018085558 0.014116398 0.03999536 0.018386157
0.043406803 -0.01674345 0.01257254 0.062333174 -0.0017654422 0.019304758 0.035752516 0.06202719
0.030032508 0.047590673 0.07848485 -0.021247977 -0.04144095 -0.02701073 0.052011512 -0.065183215
-0.03525678 0.028141549 0.015854722 0.04594875 0.085095905 0.03539951 -0.04520432 -0.109262645
-0.006069684 0.01315926 -0.007648172 -0.07312921 -0.10338293 0.019223688 -0.018558744 -0.06797036
-0.07421415 -0.012338873 0.014449598 -0.0026405824 -0.030174306 -0.03125564 0.014210679 -0.05289383
00000000: b4a6 67bd 8a67 94bc a3de bf3c 8951 9b3d
00000010: 16f2 84bd 815e 4a3d 4d83 723d cd79 2d3d
00000020: bc05 ae3d dc84 593d ff71 913b 3f64 873d
00000030: 58ea 623d e8af 3f3d 3933 66bd a2ec 9fbd
00000040: 6d66 f4bc 3329 fbbc a084 d93c 15ff 2a3d
00000050: 9bf4 083d bbd9 873c 956d 3f3d c84d 63bc
00000060: 8626 b53d 83c1 49bd d98a 693d 6824 05bd
00000070: 30b6 7ebd 562e 8bbc 9f0f ae3c 7f4e d43b
00000080: 7ef5 773d c36d 69bd 678e c73d 33a6 ff3c
00000090: 4f25 8fbd 89ba 023e 1b82 673d 2e33 66bd
000000a0: a501 403d 9c1e ecbd 68d5 cf3d 0456 023d
000000b0: a356 c43d 4b32 7d3d 96d3 4e3d 3356 a6bc
000000c0: 11e1 893d 8a29 9a3d 8f1a 05bd 4c4d eabd
000000d0: b997 b6bd ad17 90bc bb3c 7fbd f666 a73d
000000e0: 439c b53d 3d51 4b3c 7ef2 a13a af21 6c3d
000000f0: 903d 9b3a b263 8abd 8431 ebbb 8c51 c73c
00000100: 5df3 6d3d b088 3f3d 26fc b83b 995d 81bd
00000110: 681e 4f3d 5657 9bbc b2aa a43b 39ae 4a3d
00000120: 3918 143a f579 b43d c7d4 123d 7098 6e3c
00000130: 90ad 16bd 3462 053c 47ed 1cbd 7902 bb3d
00000140: 89cd cf3c 407e 873d 860b dabb 3bbb abbd
00000150: 82ef 63bd 0939 773d 2a85 e23c 0203 ab3d
00000160: 9fe4 b73d 1648 4cbd 2dcb ef3d 44a9 07bd
00000170: f044 23bd bfdc 83bd 2c93 c53c 2483 d13c
00000180: a1da 173d 3587 36bd b7bb 253c 9882 17bd
00000190: df39 393d d200 5ebc 1052 ad3c 7a4d 8cbd
000001a0: 9051 63bd defd a33d 41ff d23b 3c13 fc3c
000001b0: 290e 12bc 8ee0 8f3b 6159 80bd f92f a3bd
000001c0: 35aa a5bb c592 dd3d 324a 9abc 7785 bf3d
000001d0: 6f9c 303d b82b 2f3d e3ab 803d 23f9 3a3d
000001e0: 8695 fa3c 7f77 423d 7d36 79bd 232c 84bc
000001f0: f969 aabc 9ad5 b23d 8f22 5c3d b1ca 223c
00000200: cb8f a73c d2a0 433d 442e f1bc adbe 18bc
00000210: e9ec 51bc 1b54 43bc 03c4 66bc 5926 27bd
00000220: 202f 0f3d be13 923c c22f 2d3c 5595 943c
00000230: 6789 98bb a960 aabd a90c 5fbd 64a5 ff3c
00000240: 124b a7bd d022 81bd 84ea 2d3c 46a1 eabc
00000250: 5426 c4bd d14b 97bd d09f a3bd edbf adbb
00000260: 8085 f7bb 1838 b1bc ab0f 623d f324 57bb
00000270: b23b f9bc cd9c 2e3c 7073 903d 14df 45bd
00000280: 86ea fa3b 053c 223c 5f8a 253d fd9f 14bd
00000290: e94c 2a3d 4667 cc3d f618 823d d783 0dbd
000002a0: 8129 523c d786 42bd a7b6 443d d6dd 2ebd
000002b0: 7161 bf3c 07e7 d0bc 7fc7 f73c c65c e63b
000002c0: bf94 593d 5288 a5bd aeae 81bd ab36 18bd
000002d0: 9bbd 4dbb 4bb2 f2bd 7ac0 943d 046d ad3c
000002e0: 3b0f 99bd e210 96bd 26ad f6bc 1386 bbbc
000002f0: c8cb 5d3b 99f7 4d3d 2b9e 28be c5a8 c1bd
00000300: a148 043d 8fe3 43bd 0679 e5bd 0536 85bd
00000310: 8eee d23c 0ebe 123d 88e2 0cbd 7f16 743d
00000320: 90e4 8ebd fb03 97bc f4ed c2bc 84a2 4e3d
00000330: 7c34 7bbc 6fcc a53d 071b f23c 92f1 adbc
00000340: dcfb 4c3d 59c0 193d ffc0 4e3d 1db8 72bd
00000350: 2a28 94bc 7748 673c 2dd2 233d 919e 963c
00000360: 55cb 313d 8f29 89bc 0efd 4d3c 1251 7f3d
00000370: 6966 e7ba 0325 9e3c 3b71 123d 3910 7e3d
00000380: bc06 f63c 70ee 423d aabc a03d 3d10 aebc
00000390: fcbd 29bd 9b45 ddbc 060a 553d c77e 85bd
000003a0: 6a69 10bd 1b89 e63c c3e1 813c c234 3c3d
000003b0: c346 ae3d 14ff 103d 2a28 39bd 18c5 dfbd
000003c0: 33e4 c6bb f099 573c 849d fabb c4c4 95bd
000003d0: 6eba d3bd ff7a 9d3c 8208 98bc 0b34 8bbd
000003e0: 97fd 97bd fc28 4abc 02be 6c3c 9f0d 2dbb
000003f0: 1b30 f7bc ea05 00bd e8d3 683c 33a7 58bd

network.4.bias f4 [100]
-0.014619322 0.020724514 -0.022129674 0.025099883 -0.010035608 0.06636746 -0.011986151 -0.067244045
-0.071834415 0.020119611 0.0020534517 0.044860967 0.03234652 0.03428576 -0.03493988 0.07593553
-0.08465629 0.00093242957 -0.05850498 0.045703836 0.03306899 0.06889715 -0.009860136 0.057745937
-0.07610474 0.066581644 -0.056647487 -0.007476438 0.023457998 -0.04852425 0.038989503 -0.053419918
-0.066202335 0.031734526 0.001990596 0.012559798 0.020772163 0.07910334 -0.076323405 -0.09363226
-0.049153786 -0.052218143 0.085784286 -0.07982441 0.004817686 0.0667548 -0.028762536 -0.08896704
-0.037612732 -0.08074836 -0.095170856 0.025920603 -0.01515418 -0.06985412 -0.021188801 -0.0036752129
-0.047513116 -0.10168517 -0.081728846 0.040407337 0.021479487 -0.071489185 -0.027220486 0.019662295
0.024467986 -0.061262988 -0.035618078 -0.041758534 -0.043177813 0.0498889 0.043756135 -0.08146217
-0.049199194 -0.08823682 0.003307639 -0.027592663 -0.027682628 0.086259186 -0.0688328 0.010322488
0.07714747 -0.078269176 0.12489153 -0.060242154 -0.0036401683 0.084729016 -0.03875806 -0.0734607
-0.0934049 0.048348714 0.04734106 -0.017506517 0.07208051 -0.071421 0.04768082 0.010260188
0.01257016 -0.041337866 -0.00969077 -0.0025193873
00000000: e185 6fbc 75c6 a93c 4a49 b5bc 459e cd3c
00000010: 646c 24bc aaeb 873d 9061 44bc 3fb7 89bd
00000020: ec1d 93bd e2d1 a43c 3493 063b 22c0 373d
00000030: c97d 043d 3a6f 0c3d 1f1d 0fbd 1684 9b3d
00000040: 4760 adbd 4a6e 743a eba2 6fbd f233 3b3d
00000050: 5973 073d f319 8d3d 688c 21bc 0187 6c3d
00000060: cddc 9bbd f55b 883d 3207 68bd e8fc f4bb
00000070: fd2a c03c 5dc1 46bd 75b3 1f3d d8ce 5abd
00000080: 1795 87bd 10fc 013d a974 023b 9cc7 4d3c
00000090: 622a aa3c ef00 a23d 724f 9cbd 45c2 bfbd
000000a0: 7b55 49bd b1e2 55bd acaf af3d fb7a a3bd
000000b0: aedd 9d3b beb6 883d 699f ebbc 5a34 b6bd
000000c0: cf0f 1abd 655f a5bd f0e8 c2bd 7257 d43c
000000d0: 3d49 78bc ad0f 8fbd 2394 adbc d7db 70bb
000000e0: 1d9d 42bd 5040 d0bd 7461 a7bd 2a82 253d
000000f0: c0f5 af3c ec68 92bd 7ffd debc d212 a13c
00000100: 1671 c83c e6ee 7abd 43e4 11bd ff0a 2bbd
00000110: 38db 30bd 4e58 4c3d a239 333d a3d5 a6bd
00000120: 1885 49bd 82b5 b4bd f9c4 583b 020a e2bc
00000130: aec6 e2bc a8a8 b03d 36f8 8cbd a71f 293c
00000140: 7eff 9d3d 974b a0bd 21c7 ff3d 7ac0 76bd
00000150: e48f 6ebb 6886 ad3d c6c0 1ebd 9072 96bd
00000160: 114b bfbd 4d09 463d b3e8 413d d469 8fbc
00000170: f29e 933d 2c45 92bd f74c 433d 591a 283c
00000180: 13f3 4d3c e551 29bd 09c6 1ebc 4e1c 25bb
